…
ng unpickling. Arbitrary objects will no longer be allowed to be loaded via this mode unless they are explicitly allowlisted by the user via `torch.serialization.add_safe_globals`. We recommend you start setting `weights_only=True` for any use case where you don't have full control of the loaded file. Please open an issue on GitHub for any issues related to this experimental feature.
  self.backbone.load_state_dict(torch.load(param.foundation_dir, map_location=map_location))
Model(
  (backbone): CBraMod(
    (patch_embedding): PatchEmbedding(
      (positional_encoding): Sequential(
        (0): Conv2d(200, 200, kernel_size=(19, 7), stride=(1, 1), padding=(9, 3), groups=200)
      )
      (proj_in): Sequential(
        (0): Conv2d(1, 25, kernel_size=(1, 49), stride=(1, 25), padding=(0, 24))
        (1): GroupNorm(5, 25, eps=1e-05, affine=True)
        (2): GELU(approximate='none')
        (3): Conv2d(25, 25, kernel_size=(1, 3), stride=(1, 1), padding=(0, 1))
        (4): GroupNorm(5, 25, eps=1e-05, affine=True)
        (5): GELU(approximate='none')
        (6): Conv2d(25, 25, kernel_size=(1, 3), stride=(1, 1), padding=(0, 1))
        (7): GroupNorm(5, 25, eps=1e-05, affine=True)
        (8): GELU(approximate='none')
      )
      (spectral_proj): Sequential(
        (0): Linear(in_features=101, out_features=200, bias=True)
        (1): Dropout(p=0.1, inplace=False)
      )
    )
    (encoder): TransformerEncoder(
      (layers): ModuleList(
        (0-11): 12 x TransformerEncoderLayer(
          (self_attn_s): MultiheadAttention(
            (out_proj): NonDynamicallyQuantizableLinear(in_features=100, out_features=100, bias=True)
          )
          (self_attn_t): MultiheadAttention(
            (out_proj): NonDynamicallyQuantizableLinear(in_features=100, out_features=100, bias=True)
          )
          (linear1): Linear(in_features=200, out_features=800, bias=True)
          (dropout): Dropout(p=0.1, inplace=False)
          (linear2): Linear(in_features=800, out_features=200, bias=True)
          (norm1): LayerNorm((200,), eps=1e-05, elementwise_affine=True)
          (norm2): LayerNorm((200,), eps=1e-05, elementwise_affine=True)
          (dropout1): Dropout(p=0.1, inplace=False)
          (dropout2): Dropout(p=0.1, inplace=False)
        )
      )
    )
    (proj_out): Identity()
  )
  (classifier): Sequential(
    (0): Rearrange('b c s d -> b (c s d)')
    (1): Linear(in_features=64000, out_features=2000, bias=True)
    (2): ELU(alpha=1.0)
    (3): Dropout(p=0.1, inplace=False)
    (4): Linear(in_features=2000, out_features=200, bias=True)
    (5): ELU(alpha=1.0)
    (6): Dropout(p=0.1, inplace=False)
    (7): Linear(in_features=200, out_features=9, bias=True)
  )
)
100%|█████████████████████████████████████████| 105/105 [00:09<00:00, 10.64it/s]
100%|███████████████████████████████████████████| 27/27 [00:01<00:00, 15.58it/s]
100%|███████████████████████████████████████████| 31/31 [00:01<00:00, 15.58it/s]
Epoch 1 : Training Loss: 2.33867, acc: 0.13488, kappa: 0.02952, f1: 0.06918, LR: 9.99e-05, Time elapsed 0.23 mins
…
